Sequential(
  (0): Conv2d(1, 64, kernel_size=(7, 7), stride=(2, 2), padding=(3, 3))
  (1): ReLU()
  (2): MaxPool2d(kernel_size=3, stride=2, padding=1, dilation=1, ceil_mode=False)
  (3): Conv2d(64, 64, kernel_size=(1, 1), stride=(1, 1))
  (4): ReLU()
  (5): Conv2d(64, 192, kernel_size=(3, 3), stride=(1, 1), padding=(1, 1))
  (6): MaxPool2d(kernel_size=3, stride=2, padding=1, dilation=1, ceil_mode=False)
  (7): Inception(
    (p1_1): Conv2d(192, 64, kernel_size=(1, 1), stride=(1, 1))
    (p2_1): Conv2d(192, 96, kernel_size=(1, 1), stride=(1, 1))
    (p2_2): Conv2d(96, 128, kernel_size=(3, 3), stride=(1, 1), padding=(1, 1))
    (p3_1): Conv2d(192, 16, kernel_size=(1, 1), stride=(1, 1))
    (p3_2): Conv2d(16, 32, kernel_size=(5, 5), stride=(1, 1), padding=(2, 2))
    (p4_1): MaxPool2d(kernel_size=3, stride=1, padding=1, dilation=1, ceil_mode=False)
    (p4_2): Conv2d(192, 32, kernel_size=(1, 1), stride=(1, 1))
    (relu): ReLU()
  )
  (8): Inception(
    (p1_1): Conv2d(256, 128, kernel_size=(1, 1), stride=(1, 1))
    (p2_1): Conv2d(256, 128, kernel_size=(1, 1), stride=(1, 1))
    (p2_2): Conv2d(128, 192, kernel_size=(3, 3), stride=(1, 1), padding=(1, 1))
    (p3_1): Conv2d(256, 32, kernel_size=(1, 1), stride=(1, 1))
    (p3_2): Conv2d(32, 96, kernel_size=(5, 5), stride=(1, 1), padding=(2, 2))
    (p4_1): MaxPool2d(kernel_size=3, stride=1, padding=1, dilation=1, ceil_mode=False)
    (p4_2): Conv2d(256, 64, kernel_size=(1, 1), stride=(1, 1))
    (relu): ReLU()
  )
  (9): MaxPool2d(kernel_size=3, stride=2, padding=1, dilation=1, ceil_mode=False)
  (10): Inception(
    (p1_1): Conv2d(480, 192, kernel_size=(1, 1), stride=(1, 1))
    (p2_1): Conv2d(480, 96, kernel_size=(1, 1), stride=(1, 1))
    (p2_2): Conv2d(96, 208, kernel_size=(3, 3), stride=(1, 1), padding=(1, 1))
    (p3_1): Conv2d(480, 16, kernel_size=(1, 1), stride=(1, 1))
    (p3_2): Conv2d(16, 48, kernel_size=(5, 5), stride=(1, 1), padding=(2, 2))
    (p4_1): MaxPool2d(kernel_size=3, stride=1, padding=1, dilation=1, ceil_mode=False)
    (p4_2): Conv2d(480, 64, kernel_size=(1, 1), stride=(1, 1))
    (relu): ReLU()
  )
  (11): Inception(
    (p1_1): Conv2d(512, 160, kernel_size=(1, 1), stride=(1, 1))
    (p2_1): Conv2d(512, 112, kernel_size=(1, 1), stride=(1, 1))
    (p2_2): Conv2d(112, 224, kernel_size=(3, 3), stride=(1, 1), padding=(1, 1))
    (p3_1): Conv2d(512, 24, kernel_size=(1, 1), stride=(1, 1))
    (p3_2): Conv2d(24, 64, kernel_size=(5, 5), stride=(1, 1), padding=(2, 2))
    (p4_1): MaxPool2d(kernel_size=3, stride=1, padding=1, dilation=1, ceil_mode=False)
    (p4_2): Conv2d(512, 64, kernel_size=(1, 1), stride=(1, 1))
    (relu): ReLU()
  )
  (12): Inception(
    (p1_1): Conv2d(512, 128, kernel_size=(1, 1), stride=(1, 1))
    (p2_1): Conv2d(512, 128, kernel_size=(1, 1), stride=(1, 1))
    (p2_2): Conv2d(128, 256, kernel_size=(3, 3), stride=(1, 1), padding=(1, 1))
    (p3_1): Conv2d(512, 24, kernel_size=(1, 1), stride=(1, 1))
    (p3_2): Conv2d(24, 64, kernel_size=(5, 5), stride=(1, 1), padding=(2, 2))
    (p4_1): MaxPool2d(kernel_size=3, stride=1, padding=1, dilation=1, ceil_mode=False)
    (p4_2): Conv2d(512, 64, kernel_size=(1, 1), stride=(1, 1))
    (relu): ReLU()
  )
  (13): Inception(
    (p1_1): Conv2d(512, 112, kernel_size=(1, 1), stride=(1, 1))
    (p2_1): Conv2d(512, 144, kernel_size=(1, 1), stride=(1, 1))
    (p2_2): Conv2d(144, 288, kernel_size=(3, 3), stride=(1, 1), padding=(1, 1))
    (p3_1): Conv2d(512, 32, kernel_size=(1, 1), stride=(1, 1))
    (p3_2): Conv2d(32, 64, kernel_size=(5, 5), stride=(1, 1), padding=(2, 2))
    (p4_1): MaxPool2d(kernel_size=3, stride=1, padding=1, dilation=1, ceil_mode=False)
    (p4_2): Conv2d(512, 64, kernel_size=(1, 1), stride=(1, 1))
    (relu): ReLU()
  )
  (14): Inception(
    (p1_1): Conv2d(528, 256, kernel_size=(1, 1), stride=(1, 1))
    (p2_1): Conv2d(528, 160, kernel_size=(1, 1), stride=(1, 1))
    (p2_2): Conv2d(160, 320, kernel_size=(3, 3), stride=(1, 1), padding=(1, 1))
    (p3_1): Conv2d(528, 32, kernel_size=(1, 1), stride=(1, 1))
    (p3_2): Conv2d(32, 128, kernel_size=(5, 5), stride=(1, 1), padding=(2, 2))
    (p4_1): MaxPool2d(kernel_size=3, stride=1, padding=1, dilation=1, ceil_mode=False)
    (p4_2): Conv2d(528, 128, kernel_size=(1, 1), stride=(1, 1))
    (relu): ReLU()
  )
  (15): MaxPool2d(kernel_size=3, stride=2, padding=1, dilation=1, ceil_mode=False)
  (16): Inception(
    (p1_1): Conv2d(832, 256, kernel_size=(1, 1), stride=(1, 1))
    (p2_1): Conv2d(832, 160, kernel_size=(1, 1), stride=(1, 1))
    (p2_2): Conv2d(160, 320, kernel_size=(3, 3), stride=(1, 1), padding=(1, 1))
    (p3_1): Conv2d(832, 32, kernel_size=(1, 1), stride=(1, 1))
    (p3_2): Conv2d(32, 128, kernel_size=(5, 5), stride=(1, 1), padding=(2, 2))
    (p4_1): MaxPool2d(kernel_size=3, stride=1, padding=1, dilation=1, ceil_mode=False)
    (p4_2): Conv2d(832, 128, kernel_size=(1, 1), stride=(1, 1))
    (relu): ReLU()
  )
  (17): Inception(
    (p1_1): Conv2d(832, 384, kernel_size=(1, 1), stride=(1, 1))
    (p2_1): Conv2d(832, 192, kernel_size=(1, 1), stride=(1, 1))
    (p2_2): Conv2d(192, 384, kernel_size=(3, 3), stride=(1, 1), padding=(1, 1))
    (p3_1): Conv2d(832, 48, kernel_size=(1, 1), stride=(1, 1))
    (p3_2): Conv2d(48, 128, kernel_size=(5, 5), stride=(1, 1), padding=(2, 2))
    (p4_1): MaxPool2d(kernel_size=3, stride=1, padding=1, dilation=1, ceil_mode=False)
    (p4_2): Conv2d(832, 128, kernel_size=(1, 1), stride=(1, 1))
    (relu): ReLU()
  )
  (18): AdaptiveAvgPool2d(output_size=(1, 1))
  (19): Flatten()
  (20): Dropout(p=0.2, inplace=False)
  (21): Linear(in_features=1024, out_features=10, bias=True)
)
Conv2d          output shape:	 torch.Size([1, 64, 48, 48])
ReLU            output shape:	 torch.Size([1, 64, 48, 48])
MaxPool2d       output shape:	 torch.Size([1, 64, 24, 24])
Conv2d          output shape:	 torch.Size([1, 64, 24, 24])
ReLU            output shape:	 torch.Size([1, 64, 24, 24])
Conv2d          output shape:	 torch.Size([1, 192, 24, 24])
…
