Sequential(
  (0): Conv2d(1, 96, kernel_size=(11, 11), stride=(4, 4), padding=(1, 1))
  (1): BatchNorm2d(96, eps=1e-05, momentum=0.1, affine=True, track_running_stats=True)
  (2): ReLU()
  (3): MaxPool2d(kernel_size=3, stride=2, padding=0, dilation=1, ceil_mode=False)
  (4): Conv2d(96, 256, kernel_size=(5, 5), stride=(1, 1), padding=(2, 2))
  (5): BatchNorm2d(256, eps=1e-05, momentum=0.1, affine=True, track_running_stats=True)
  (6): ReLU()
  (7): MaxPool2d(kernel_size=3, stride=2, padding=0, dilation=1, ceil_mode=False)
  (8): Conv2d(256, 384, kernel_size=(3, 3), stride=(1, 1), padding=(1, 1))
  (9): BatchNorm2d(384, eps=1e-05, momentum=0.1, affine=True, track_running_stats=True)
  (10): ReLU()
  (11): Conv2d(384, 384, kernel_size=(3, 3), stride=(1, 1), padding=(1, 1))
  (12): BatchNorm2d(384, eps=1e-05, momentum=0.1, affine=True, track_running_stats=True)
  (13): ReLU()
  (14): Conv2d(384, 256, kernel_size=(3, 3), stride=(1, 1), padding=(1, 1))
  (15): BatchNorm2d(256, eps=1e-05, momentum=0.1, affine=True, track_running_stats=True)
  (16): ReLU()
  (17): MaxPool2d(kernel_size=3, stride=2, padding=0, dilation=1, ceil_mode=False)
  (18): Flatten()
  (19): Linear(in_features=6400, out_features=4096, bias=True)
  (20): ReLU()
  (21): Dropout(p=0.5, inplace=False)
  (22): Linear(in_features=4096, out_features=4096, bias=True)
  (23): ReLU()
  (24): Dropout(p=0.5, inplace=False)
  (25): Linear(in_features=4096, out_features=10, bias=True)
)
Conv2d          output shape:	 torch.Size([1, 96, 54, 54])
BatchNorm2d     output shape:	 torch.Size([1, 96, 54, 54])
ReLU            output shape:	 torch.Size([1, 96, 54, 54])
MaxPool2d       output shape:	 torch.Size([1, 96, 26, 26])
Conv2d          output shape:	 torch.Size([1, 256, 26, 26])
BatchNorm2d     output shape:	 torch.Size([1, 256, 26, 26])
…
