Sequential(
  (0): Sequential(
    (0): Conv2d(1, 96, kernel_size=(11, 11), stride=(4, 4))
    (1): ReLU()
    (2): Conv2d(96, 96, kernel_size=(1, 1), stride=(1, 1))
    (3): ReLU()
    (4): Conv2d(96, 96, kernel_size=(1, 1), stride=(1, 1))
    (5): ReLU()
  )
  (1): MaxPool2d(kernel_size=3, stride=2, padding=0, dilation=1, ceil_mode=False)
  (2): Sequential(
    (0): Conv2d(96, 256, kernel_size=(5, 5), stride=(1, 1), padding=(2, 2))
    (1): ReLU()
    (2): Conv2d(256, 256, kernel_size=(1, 1), stride=(1, 1))
    (3): ReLU()
    (4): Conv2d(256, 256, kernel_size=(1, 1), stride=(1, 1))
    (5): ReLU()
  )
  (3): MaxPool2d(kernel_size=3, stride=2, padding=0, dilation=1, ceil_mode=False)
  (4): Sequential(
    (0): Conv2d(256, 384, kernel_size=(3, 3), stride=(1, 1), padding=(1, 1))
    (1): ReLU()
    (2): Conv2d(384, 384, kernel_size=(1, 1), stride=(1, 1))
    (3): ReLU()
    (4): Conv2d(384, 384, kernel_size=(1, 1), stride=(1, 1))
    (5): ReLU()
  )
  (5): MaxPool2d(kernel_size=3, stride=2, padding=0, dilation=1, ceil_mode=False)
  (6): Dropout(p=0.5, inplace=False)
  (7): Sequential(
    (0): Conv2d(384, 10, kernel_size=(3, 3), stride=(1, 1), padding=(1, 1))
    (1): ReLU()
    (2): Conv2d(10, 10, kernel_size=(1, 1), stride=(1, 1))
    (3): ReLU()
    (4): Conv2d(10, 10, kernel_size=(1, 1), stride=(1, 1))
    (5): ReLU()
  )
  (8): AdaptiveAvgPool2d(output_size=(1, 1))
  (9): Flatten()
)
Sequential      output shape:	 torch.Size([1, 96, 54, 54])
MaxPool2d       output shape:	 torch.Size([1, 96, 26, 26])
Sequential      output shape:	 torch.Size([1, 256, 26, 26])
MaxPool2d       output shape:	 torch.Size([1, 256, 12, 12])
Sequential      output shape:	 torch.Size([1, 384, 12, 12])
…
